checkstunting.tflite (tflite, 46980 bytes, 7 tensors)

arith.constant f4 [1, 32]
00000000: c513 4cbe 9e24 cabe cb98 b13e ca8b fc3d
00000010: 69d0 1b3d eaf5 bd3e ad44 da3d 26b8 b3be
00000020: f4f9 2abe 4e1c 443d 6839 8ebe 182f a53e
00000030: aecc 563e de4f d8be ff21 e4be 0d70 993d
00000040: 5d08 043e 1f91 59be dccd a33d 6aaf 8a3c
00000050: 9eed f0be 781e c6be efb8 333e 640b 993e
00000060: d746 2a3e f22d 58be e341 cc3e 4ed6 a13e
00000070: 93c5 183e 5290 6c3e 5f0e a3be 51cd 3a3e
-0.19929416 -0.39481062 0.34686884 0.1233135 0.038040552 0.3710168 0.1065763 -0.35101432
-0.16696912 0.047878556 -0.27778172 0.32262492 0.20976517 -0.42248434 -0.44557187 0.07492075
0.12893815 -0.21246766 0.07998249 0.016929347 -0.47056288 -0.3869512 0.17551015 0.29891503
0.16628586 -0.21111277 0.39894018 0.31608814 0.14919119 0.23101929 -0.31846902 0.18242384

arith.constant1 f4 [32, 64]
00000000: 1007 64bd 4f51 49be ca7d fa3c 59f5 96bb
00000010: 7142 1e3e 4528 e23d 825e 0e3e 9782 413e
00000020: b5a3 703d 6358 863e e4d0 1e3e 2f74 d13d
00000030: bca1 b03d a9d8 8bbc dd42 e13b a1b2 533d
00000040: cc54 8bb8 b4b2 783e 0a3b 333e 0972 7fbd
00000050: 5a03 313e b484 47bd 1fc6 0bbe e04c c03b
00000060: a1f3 043d d19f 2bbc 5fc5 6e3e eb06 4e3c
00000070: 18e1 903e d14c 643e 941e a4bd 98bd 13be
00000080: ece2 3fbe ad99 823e 163d f23d c6f4 003e
00000090: 5a2b c93d 54a1 abbd 1154 0abe 1e7e 873e
000000a0: 611b 8f3c 23f3 8a3e 8939 cd3c 0ee0 c6bd
000000b0: fd6d ddbb e59c 0bbe f82d c5bd d266 9abd
000000c0: 2415 473e 2ec5 9e3e 521b ffbc d21b 203e
000000d0: 00f9 c8bb 5ddf 093d 70d5 a5bd aa69 db3d
000000e0: 00f4 853b bafb 34be 0c2a 793e 9eca f2bc
000000f0: 4fc6 463e a4f9 bc3d 5b1a ebbd 10bc 533e
00000100: 9b21 5dbc 745f 29be ec2c 9a3b a8cb e2bd
00000110: 05cf 8f3e 973b afbc 6c45 62be e80b 623d
00000120: 3ab2 04be a1fe e03d c035 b03d 459e 293d
00000130: 6029 02be be9b a63d 9d3a c83c 7e57 cfbd
00000140: ce39 1fbc 7828 fe3a da72 31bc e2ec d83d
00000150: 9230 2b3c 5c22 333e 8d71 a23e 8a01 333e
00000160: 3312 d23d 8afd 16be e27b 20bd 330b f63d
00000170: 23e9 b5bd d459 3abd 1629 1bbe f8f5 37be
00000180: 3764 20be df44 e3bd 48a6 b23d 14d9 e23d
00000190: 1fd0 e33d 6b5f 763e 2726 483e 9ddd 923e
000001a0: 7769 863d 5707 753e 84fc 023e 6743 35bd
000001b0: b507 cbbd 77c3 41bc 8ff5 253e ec6e c3bc
000001c0: 92f4 e2bb 2e42 03bd bd3e 02be 5463 31bd
000001d0: 637d 60be b549 8bbd 7b10 4cbe 3bf8 983d
000001e0: cc83 103e 9869 df3d f318 01bd 0fd6 9bbc
000001f0: 5cf4 973e b331 dcbd 538c 723e 54d0 89bd
00000200: d09f 56be a64e c9bc 6cd6 353d af7d 40bc
00000210: 70aa 323e df78 07be b3ed 313e 71a7 1bbe
00000220: 679a 833c 9c79 5bbe 20eb 74be 2aa0 073e
00000230: 655b 86be fa22 5dbe 4630 10bd a80e 4e3e
00000240: 48e2 f7bd 2636 27bc 614f 553e bb02 fc3d
00000250: 9070 f0bd a3b5 f9bd 80e9 5fbd 04c3 223e
00000260: 14cf 303e bf23 1cbe 746e 0dbe 89c6 593e
00000270: 17fb 4f3c 5649 533e f947 2dbd 067a 8e3c
00000280: a097 113e c979 263d 9a19 00be ec9d f7bd
00000290: 2c44 203e 6082 b33d d4f4 b33d db31 c5bd
000002a0: d4e8 a83d 2619 34be 92e3 90bd 8479 eebc
000002b0: 66de 1ebe 2e4e 84be d918 59be c265 0fbe
000002c0: ee76 07be 40cb 143e d40b 943b 73e4 443e
000002d0: 85b7 7abd 5b17 303e da2a 45be 3fd8 f5bd
000002e0: cbb0 38bd b405 283d b768 89bd e924 3c3e
000002f0: 3ea3 ec3d 6117 3abe e3c3 94bd 97a0 6cbd
00000300: 3012 733d 9462 2dbe 5d86 063e 0fb6 293e
00000310: ed3a 55be c6a7 3cbd 6c98 403e d537 44bd
00000320: 5ac5 80bd fb79 dc3d f30a bbbd 02eb 0a3e
00000330: 916a 3ebd e1ee c93d 0150 e13d 8525 913d
00000340: cf3f e3bc daee 273d e4e8 0ebe 1136 ab3d
00000350: 317a 543e 38ab 24be 4983 11be 9968 fdbd
00000360: cbd5 513e 4729 193e e3ce bc3d c769 d63d
00000370: 22f7 833d e35a 13be e448 8dbd 6629 e8bd
00000380: fe0e 1cbe 1ae6 62be b77c 713e 334c 66bc
00000390: 41cc 16be 09f2 f8bd 10ef 7bbe c8c2 83be
000003a0: 83e8 4cbe 7431 703b a6e0 813d f177 d2bd
000003b0: 8d76 39be 8c64 7a3c 6b23 373e 8a7f 97bc
000003c0: 7471 873d 9e1f 54be f420 6cbe 823c dbbd
000003d0: 4d70 32be 0819 14be 00a9 f63d 71e7 f8bd
000003e0: 47ca f0bd f9e7 8a3d e3f9 86bd 4d5d 2bbe
000003f0: c3b0 ce3b 7359 b33d 5c71 123e 2210 00be
-0.055670798 -0.19659923 0.030577559 -0.0046068844 0.15455033 0.11042837 0.1390324 0.18897472
0.058749873 0.2623931 0.15509373 0.102272384 0.086245984 -0.017071085 0.006874426 0.051684026
-6.643831e-05 0.2428692 0.1750299 -0.06236461 0.17286435 -0.04871054 -0.13649796 0.005868539
0.032458905 -0.010475115 0.23317479 0.012574892 0.28296733 0.22294928 -0.08013645 -0.14427793
-0.18738908 0.2550787 0.118280575 0.12593374 0.09822722 -0.0838038 -0.13508631 0.26463407
0.01746911 0.27138624 0.025051849 -0.09710704 -0.0067574964 -0.1363407 -0.096279085 -0.07539143
0.19441658 0.3100981 -0.031140957 0.15635613 -0.0061331987 0.03366028 -0.080973506 0.10713513
0.004087925 -0.17674151 0.24332446 -0.029637631 0.19411586 0.09227303 -0.11479636 0.20677209
-0.013496782 -0.16540319 0.004705062 -0.110740006 0.2808763 -0.02139072 -0.22096795 0.055187136
-0.12958613 0.109860666 0.08604002 0.041410703 -0.12711096 0.08135174 0.024442011 -0.1012411
-0.009718372 0.0019390723 -0.010830605 0.10592057 0.010448592 0.17493576 0.31727257 0.17481056
0.102573775 -0.14745155 -0.039180644 0.12013855 -0.08882358 -0.045495823 -0.15152392 -0.17964923
-0.15663229 -0.110971205 0.08723122 0.110765606 0.1112368 0.24059837 0.19545804 0.28684703
0.065630846 0.23928581 0.1279164 -0.044253733 -0.099135794 -0.011826388 0.16206954 -0.023856603
-0.0069261277 -0.032045536 -0.12719245 -0.043307617 -0.21922831 -0.06801168 -0.19928162 0.07469221
0.14112777 0.10908812 -0.031517934 -0.01902297 0.2967862 -0.10751667 0.23686342 -0.067291886
-0.20959401 -0.024573635 0.04439394 -0.011748715 0.17447829 -0.13229702 0.17375831 -0.15200593
0.016064836 -0.21433109 -0.23917818 0.13244691 -0.26241603 -0.21595374 -0.035202287 0.20122778
-0.121037066 -0.010205781 0.20831062 0.12305208 -0.117402196 -0.121928476 -0.054666042 0.15894705
0.17266494 -0.15248011 -0.13811666 0.21267141 0.012694142 0.20633444 -0.042304967 0.01739217
0.14217997 0.040643487 -0.12509766 -0.12090668 0.15651006 0.087651014 0.08786932 -0.0962865
0.082475334 -0.17587718 -0.070746556 -0.029110678 -0.15514526 -0.25840896 -0.21200885 -0.14003661
-0.13228962 0.14530659 0.0045180116 0.19227771 -0.061210174 0.1719641 -0.19254628 -0.12004136
-0.045090478 0.041021064 -0.06709426 0.18373455 0.115545735 -0.18172981 -0.07263925 -0.057770338
0.059343517 -0.16932136 0.13137193 0.16573356 -0.2082326 -0.04605844 0.18808144 -0.047904808
-0.06287642 0.107654534 -0.09132948 0.13566211 -0.04648835 0.09860016 0.11001588 0.070872344
-0.027740387 0.04099927 -0.13956028 0.08359922 0.20749737 -0.1608094 -0.14210238 -0.12373466
0.20491712 0.14957152 0.09219148 0.10469394 0.06443621 -0.1439014 -0.068986684 -0.11336021
-0.15240094 -0.2215809 0.23582731 -0.014056253 -0.14726354 -0.121555395 -0.24602914 -0.25734544
-0.20010571 0.003665057 0.063416764 -0.10276783 -0.1811163 0.015282761 0.17884605 -0.018493433
0.06613436 -0.20715186 -0.23059446 -0.107049 -0.17425652 -0.14462674 0.12043953 -0.12153519
-0.11757331 0.067825265 -0.06590631 -0.1673481 0.0063076927 0.087572955 0.14301056 -0.12506154

arith.constant2 f4 [64, 128]
00000000: 358e 563d dd93 08be 42d3 fcbd 2872 04be
00000010: 12b7 e7bd ab90 a6bd 2a8f a0bd e758 313e
00000020: 9a00 2a3d 763b 033e 1dc2 15bd 7a6c 1cbe
00000030: 360d 86bd 0b13 1a3e 076d f3bc b93d 703d
00000040: 9ce6 b73d 5b13 3f3d 3780 2d3d bea4 193e
00000050: bbc6 2a3d a558 273e 7171 413e b9e0 323e
00000060: fd89 ba3d 8936 9cbc 764a aebd 775a ccbc
00000070: a846 243d 5b83 993d 3aa1 93bd 2875 19bd
00000080: e9aa 893d 7a48 3abc b3bb 83bc da7c 1b3e
00000090: 9c28 eabd c781 0b3b f20a c7bd 4e51 933d
000000a0: 41fb 39bd 5c9d 3a3e 35f5 debd 827c 653d
000000b0: a56b e13d 69c7 c03d 941e 443d d33e 9cbc
000000c0: 0cea 2c3d 95c8 d13c e591 ef3c 4f4c c9bb
000000d0: ed30 5a3b 3f6f 0d3e 1786 b63c 3688 94bd
000000e0: 3803 0fbe f028 173e 1861 5e3d 62e6 27bc
000000f0: 13a7 913d f3f4 923d e938 3f3d 3bb1 743d
00000100: 4bde 2a3d c247 993c 1284 00be 522c de3d
00000110: 4a1a bdbd 5397 afbd c938 db3d 5d56 2f3e
00000120: 903e bbbd 3e0e 51bd a05c a7bd 8f81 cdbd
00000130: 7922 31bd 37c8 7cbd 137f 373e fd44 0ebe
00000140: 94bf 203e 63e8 73bd 5ad8 ca3d 345c 92bd
00000150: 7d38 15bd aba9 363e e478 493b 6d31 3b3d
00000160: 639e 803b 0a29 11be f3ee ae3c e86a 2b3e
00000170: d953 14bc 243b dcbd 51d5 f23d 8ae2 edbd
00000180: ed73 a4bb bbd2 78bd 270a 963b 6522 293e
00000190: 9d75 36bd 85c9 5cbd f10b a8bc 5239 083e
000001a0: b924 123e def3 b23d ca5e 063e 0412 383d
000001b0: c2b5 95bc 6640 243e ab60 a93c 85a6 423d
000001c0: 645e 0a3e 17ed babd fd62 6d3d d5fd a8bd
000001d0: 2ce2 14bd 2f11 05bd 7502 943d 9474 1b3e
000001e0: 31aa 053e b686 8fbd 1905 363e 1fee 9abd
000001f0: eae1 a2bd 2314 acbc 1bfe f83d f44d e5bd
00000200: 6561 4fbd 271e 1b3e 06da 5fbd 0544 613d
00000210: 8a1a fb3c d2db 05be 69ad bd3d e4d6 d53d
00000220: 718d ac3d c76c c4bd d2b7 3fbe 60a0 95bd
00000230: 28c1 f53d 0c75 5dbb 422a 123e 4b47 09bd
00000240: 2989 123d 0da1 bbbd 6d3f c43c 5c98 fa3d
00000250: 45b3 c1bd fc1a 0cbe 2bf4 a43d e337 fa3d
00000260: 7923 c83d 1bc8 50bd cfb0 d7bd d2c0 20be
00000270: b783 edbd 3928 46bd 78c0 38be 530d c7bc
00000280: 4d02 bb3d f4cc 183d 74a4 fc3b 8a8d dc3d
00000290: d6b0 c23c 62de 0d3d 286a f43d a28f 0f3e
000002a0: 7eb1 7fbd d3f5 d0bd f6c8 4ebd 8300 b03d
000002b0: 9c6c 0ebe 63d2 0e3e 24ce 09be 2605 46be
000002c0: ac30 32bd e7c7 133e f559 9739 b474 00be
000002d0: c881 a1bd 78f6 09be 05a8 e33d c3ba 7a3d
000002e0: b622 ab3d 2cce 5f3d 2a6b f6bd 8ed4 59bb
000002f0: bb5c 71bd 78ca f73b 7abc 27be 06c0 8dbc
00000300: a6fc 08bc 1fc1 1bbe ba50 cbbd 59e7 06be
00000310: b1a1 973d f8bd 74bb 1dbb 2abe 4749 fcbc
00000320: 07d3 e23d ddc7 87bd de1b d23c 2275 083e
00000330: 6f2e 10be a092 083e f6a0 5cbd d9d7 afbc
00000340: 4781 f9bd 19a2 283d bf36 9e3d 1aaf 133e
00000350: dea8 1a3a 74ff edbd 75a5 e9bd 4d76 d33d
00000360: 92c4 0f3e 5f22 b63d 31c1 6abd e8dd 14be
00000370: 901c c13d 9663 c73c 19d0 37be 9d96 6abd
00000380: a5e4 083e 9569 d7bc 015b 16be 585c c7bd
00000390: d82e 08be bffa 7abb be0b 29bd e065 ecbd
000003a0: 1633 5d3b a55f febd c4da f5bc 6f9f 1f3e
000003b0: 1a69 abbc 4851 17bd c3c7 b1bd 0e37 f23d
000003c0: 1069 bebd c599 32be ec3f ec3d 5095 e33c
000003d0: 8e34 87bd 96de 153e c8b7 b43d 17d8 a4bd
000003e0: b565 d13d e77a c73d 5b33 01be 969e dabd
000003f0: 195b 13be c1b9 40bd 9369 013e 376d e5bd
0.052381713 -0.13337655 -0.12344982 -0.12934172 -0.11314215 -0.08133062 -0.078398064 0.1731907
0.04150448 0.12815651 -0.036562074 -0.15275756 -0.065454885 0.15046327 -0.029715074 0.058652613
0.08979532 0.04664932 0.042358603 0.1500425 0.04169343 0.16342409 0.1889093 0.17468537
0.091083504 -0.019068973 -0.08510296 -0.02494548 0.040106446 0.07495757 -0.07208486 -0.037465245
0.06722052 -0.011369819 -0.016080713 0.15184346 -0.11433527 0.002128707 -0.097188845 0.07193242
-0.04540563 0.1822409 -0.10886613 0.056026943 0.1100686 0.094130345 0.047880724 -0.019072926
0.042215392 0.02560834 0.029244373 -0.00614313 0.0033293322 0.13811968 0.022280736 -0.07252543
-0.13966072 0.1476171 0.054291815 -0.010247799 0.07111945 0.071756266 0.046685133 0.059739333
0.0417159 0.018710975 -0.12550381 0.10848297 -0.0923353 -0.08573785 0.1070419 0.17122789
-0.09142792 -0.051038973 -0.08171964 -0.10034477 -0.043245766 -0.061714377 0.17919569 -0.13893504
0.15698081 -0.059547793 0.09904547 -0.071464926 -0.036430825 0.1783816 0.0030742222 0.045701433
0.003925131 -0.14175811 0.021354174 0.1674 -0.009053194 -0.10753468 0.11857093 -0.116154745
-0.0050187022 -0.060747843 0.004578847 0.16517027 -0.04454576 -0.05390312 -0.020513507 0.13303116
0.14271821 0.0873792 0.13122097 0.044939056 -0.018275145 0.16040191 0.020675978 0.047522087
0.1351257 -0.091272525 0.05795573 -0.082515396 -0.036348507 -0.03248709 0.07227031 0.1518119
0.13053204 -0.07008116 0.17775382 -0.07564949 -0.07953246 -0.021005696 0.12157842 -0.11196509
-0.050629992 0.15148221 -0.054651283 0.05499651 0.030652303 -0.13072136 0.09261591 0.10441378
0.08425415 -0.0959106 -0.18722466 -0.0730598 0.11999732 -0.003379169 0.14273933 -0.033515256
0.035775337 -0.091615774 0.023956025 0.122360915 -0.09458021 -0.13682169 0.08054384 0.12217691
0.09772391 -0.050972085 -0.105317704 -0.15698555 -0.11597388 -0.048378203 -0.18042171 -0.024298346
0.09131298 0.037304834 0.007710034 0.10769184 0.023765963 0.03463591 0.1193431 0.14019635
-0.06242513 -0.10203137 -0.05048462 0.085938476 -0.13908619 0.13947444 -0.13457543 -0.19337901
-0.04350345 0.14431725 0.00028867988 -0.12544519 -0.07886082 -0.13472927 0.111160316 0.061213266
0.0835623 0.05463998 -0.12032159 -0.0033238265 -0.058926325 0.007561978 -0.16380492 -0.017303478
-0.008361017 -0.15210389 -0.09927507 -0.1317419 0.07403887 -0.0037344676 -0.1667294 -0.03079666
0.110754065 -0.06629918 0.025648054 0.13325933 -0.14080213 0.13337183 -0.05386444 -0.021465229
-0.12182861 0.041170213 0.07725286 0.14422265 0.0005899797 -0.116209894 -0.114085115 0.103252985
0.1403983 0.088932745 -0.057313148 -0.14537776 0.09429276 0.024339478 -0.17950477 -0.057272542
0.13368471 -0.026295463 -0.14683153 -0.0973441 -0.1329912 -0.003829643 -0.041270964 -0.115428686
0.0033752373 -0.124205865 -0.030011542 0.15588163 -0.02092414 -0.03694275 -0.0868068 0.11826907
-0.09297383 -0.17441471 0.1153563 0.027781159 -0.06601821 0.14635691 0.08824116 -0.08049028
0.10224477 0.09740239 -0.12617247 -0.10674779 -0.1439022 -0.04705215 0.1263793 -0.11202472

arith.constant4 f4 [32]
00000000: 28f8 673d 3f18 7e3d c542 04bd ec07 84bc
00000010: ac3b 05bd 7dfc 93bc c0a7 09bd 5f66 673d
00000020: 8775 563d 7cad 07bd 6a58 5b3d ed70 f0bc
00000030: 5f24 0abd 427f 443d 4753 413d 25be 0cbd
00000040: 2787 1bbd 0210 653d a06f 13bd 117a d5bc
00000050: f4e5 303d 7d10 423d 1ffd d5bc 0d7b 02bd
00000060: 37f4 aebc dbce 6b3d 096f dcbc 2cdb e7bc
00000070: 7b9f 13bd 04a6 edbc 2c34 553d db97 c4bc
0.056633145 0.06203484 -0.03229024 -0.016117059 -0.03252761 -0.018064732 -0.033607244 0.056494113
0.052358177 -0.033124432 0.053551115 -0.029350722 -0.033726092 0.047972925 0.04719856 -0.034361023
-0.03797069 0.05592347 -0.035995126 -0.026059182 0.04318805 0.047379006 -0.026121674 -0.03185563
-0.021356685 0.05757032 -0.026908414 -0.028302751 -0.036040764 -0.029009826 0.052051708 -0.023998192

arith.constant5 f4 [64]
00000000: 7771 443d ebb5 b7bc 9bd3 cfbc c3dc 57bc
00000010: 0976 143c e6bb 463d c451 94bc 92c0 cbbc
00000020: a8fb 44bc b1c0 9abc 8972 203d afba 513d
00000030: e2a4 333d eb14 4c3d c4c3 6f3d 27df 733c
00000040: bd78 1c3d 352f 0f3d 802e 783d 6fd2 a6bc
00000050: e4db 8d3c e48f 89bc 2f44 8a3d bf04 083d
00000060: db9f 1cbc a0d6 f03c 9d42 a1bc 7c27 873b
00000070: ba2d 3abc f3c8 4b3c 50c1 423d 5241 083c
00000080: d237 ecbb a1ac 693d fab8 c0bc 0e53 993d
00000090: 26be 6bbc 7be7 c0bb a5aa a73c 9c92 673d
000000a0: 623e a1bc a58a 733d d569 843d 2356 c2bb
000000b0: 1c12 8abc 77e6 fd3c c947 6ebc 3632 79ba
000000c0: e080 113c 34f0 553d 5609 553d eac5 603d
000000d0: 32f3 b7bc d60e 833d e83e 50bc 9699 963d
000000e0: 949a 5a3d 3809 8ebc e6c4 b4bc a398 573d
000000f0: 3b38 6a3d dda2 9c3c a8d8 7b3d fb57 483d
0.04795977 -0.022425612 -0.025369456 -0.013175192 0.009061345 0.048519038 -0.018105395 -0.024872098
-0.01202289 -0.01889071 0.03917173 0.051203426 0.043858416 0.049824636 0.058536306 0.014884747
0.038201082 0.03495713 0.06059122 -0.020364014 0.017316766 -0.016792245 0.06751286 0.03320765
-0.009559597 0.029399216 -0.019685084 0.00412458 -0.011363441 0.012438047 0.04754764 0.008316355
-0.0072088027 0.057049397 -0.023525704 0.074865445 -0.014388597 -0.0058869696 0.020467112 0.056536302
-0.019683067 0.059458394 0.06465498 -0.0059306785 -0.016854338 0.030993683 -0.014543482 -0.0009506078
0.008880824 0.05223103 0.052010857 0.054876246 -0.022454832 0.06399314 -0.0127103105 0.07353513
0.053370073 -0.01733838 -0.022066545 0.0526358 0.05718253 0.019120628 0.061485916 0.04891203

sequential_1_1/dense_4_1/Add/ReadVariableOp f4 [128]
00000000: e6ca cd3c 3fd4 633d 218f ccbc c08e ea3c
00000010: 3c65 763d a075 683d 5885 1b3d 2b38 00bb
00000020: 4201 8b3d a7af 883d f66d 5b3d fb92 57bc
00000030: 237d 51bc c8fb 313d 47af 3a3d ba08 cbbb
00000040: 1355 babc c41f 473d 39a8 333d 6f82 b63c
00000050: d258 443d c2ad 77bc 32d1 103d c343 523d
00000060: b8a2 653c 129a 703d 3c08 373c 821f 6abc
00000070: e7c5 6e3d 77bd 0a3c c574 383d fa75 743b
00000080: a84b 4d3d 2c85 0cbc 8935 fdbc 4145 b13c
00000090: 3b65 893d f97e 85bc ee84 4e3d 24e0 7c3d
000000a0: c7f2 82ba c496 793b b813 4a3d 7121 843d
000000b0: c006 6ebc 2aea 7d3d e65a 6c3d d417 ab3c
000000c0: ba69 43bc d686 a8ba eb8d 4e3d 0100 543d
000000d0: e1ca 853d 9314 a3bc 5471 cf3c afe5 f23c
000000e0: 2f6d 273d 7c30 873d b076 4a3d c981 5e3d
000000f0: 21c8 0abd 327d 8f3d 3498 4b3d 1920 083d
00000100: 0bd8 8dbc 8e6b 39bd 6f9f 333c f341 853b
00000110: c413 283c 9721 f83c 6fc5 2e3d 3742 febb
00000120: 4a33 ac3c b96b 1d3d cdc4 293d f170 133d
00000130: 7f0f 943d c93f 2a3d ac44 6cbc 0434 163d
00000140: ca46 233d ea03 fc3c 33bb 5c3d 2e8c e43c
00000150: 1f3b 583d 5495 1c3d 952f 753d 9b84 fa3c
00000160: f58c b13b adec 443c f09e 353d 647f 63bb
00000170: 574c 9b3c 82fe acbb a3be 093d 160a 86bc
00000180: 4401 953d 9ef6 5dbc 5b6f ee3c 72f8 583d
00000190: 7dda aebc 87c3 173d 1431 3f3d b997 993c
000001a0: cd9f 2d3d e82a 7b3d 1420 213d 5bd0 863d
000001b0: 5c02 6b3d fdae 483d 69de d83c 3029 333d
000001c0: 52ed 3d3d 8c31 523c efd0 813d 3ae1 92bc
000001d0: 8f8d 98bb b2e4 433d 4e68 4b3d db0e 81bc
000001e0: 0260 9b3c 6c2b e33b c99e 403b 5885 553d
000001f0: fb2f 983d 1387 9b3d 9546 95bc c47e e2bb
0.025121164 0.055622336 -0.024970593 0.028632522 0.06015514 0.0567528 0.037968963 -0.0019564729
0.06787349 0.06674128 0.053571664 -0.0131576015 -0.012786183 0.043453008 0.045577314 -0.0061961086
-0.022745645 0.04861428 0.0438616 0.022278992 0.04793627 -0.015117111 0.035355754 0.051334154
0.014015846 0.058740683 0.011171397 -0.014289739 0.058294203 0.0084680235 0.045033235 0.0037301765
0.05012098 -0.0085766725 -0.030909317 0.021639468 0.06708761 -0.016295897 0.05041974 0.061737195
-0.0009990566 0.0038084248 0.04933521 0.06451691 -0.0145279765 0.061990894 0.057703875 0.020885386
-0.011927063 -0.0012857567 0.050428312 0.051757816 0.06532837 -0.019907271 0.025322594 0.029650537
0.04087561 0.066010445 0.049429595 0.05432299 -0.033882264 0.07006301 0.0497057 0.033233736
-0.017314931 -0.045268588 0.010963305 0.0040666997 0.010258619 0.030289454 0.042668756 -0.0077593583
0.02102055 0.03843281 0.04144745 0.03599638 0.07229518 0.041564737 -0.0144206695 0.0366707
0.03986243 0.030763585 0.053889465 0.027898874 0.052790757 0.038228348 0.05985983 0.03058081
0.0054184147 0.0120193185 0.044341028 -0.0034713382 0.0189573 -0.005279363 0.03362907 -0.016362231
0.07275632 -0.013547568 0.029105833 0.05297131 -0.021344418 0.037051704 0.046677664 0.018749105
0.042388726 0.061320215 0.039337233 0.065827094 0.057375297 0.048995007 0.02647324 0.04374045
0.046368904 0.012829196 0.06338679 -0.017929662 -0.004655547 0.047825523 0.04966002 -0.015754154
0.018966679 0.0069326665 0.0029391518 0.05212912 0.074310265 0.07594123 -0.018222133 -0.0069120843

sequential_1_1/dense_4_1/MatMul f4 [128, 5]
00000000: 3636 413e 802c 793d 14a3 dfbb e0dd ddbc
00000010: ddea d13b b8d9 e9bd a674 0d3e 06b0 95bd
00000020: 2a8a 863c 7ee0 853d d1fd 293d f3bd 203e
00000030: f71f b63c 4fc0 27be f107 6ebd ce1f acbc
00000040: 4c51 d8bd 98a5 59be 3305 8fbd e0b8 92bd
00000050: 7c5d a6bd ee47 a33d 9676 e8bc 8ad8 40be
00000060: 8fda 4fbe ecda 573e deb9 eebd 3fae d43d
00000070: b6d9 aa3c 9cd3 383e 1562 65be ee1f 963d
00000080: e58f b6bd 131d 42be 02a2 3a3e 5ea5 a8bd
00000090: 5a57 47bd 5985 75bc ae4c 503c af18 4fbe
000000a0: 2e0f 3bbe dbcb 623e 504b 3e3e 03bd a63d
000000b0: 229d e53d 7f8f f43b 8b05 f23c f213 213e
000000c0: 91a3 493e 5204 fa3c 0f74 ad3d 1e48 0c3e
000000d0: 0a92 eebc 2be2 46bd cf88 f73d 23a4 053e
000000e0: c273 4cbe cb00 55bc a9ba d83d 5c97 5fbd
000000f0: af88 4fbd 6c93 2cbe 6a17 ac3d a965 8439
00000100: 9e8e e33d 7282 45bd 7bed c13d 4a47 083e
00000110: f49f e93d 6945 04bd fbb9 383e c82d a03d
00000120: f3d4 d33d e821 0dbd 18f6 b2bd 9066 453e
00000130: cf61 f63d 0328 3abd 0436 f63b c55a 0ebe
00000140: dcbb 57bd 519b bfbc 1843 d83d d433 51bb
00000150: 638c 87bc 83da 07be e01b 69be 12a1 eabc
00000160: caa6 7bbd f8ce c4bb 40ba 073e 0880 313d
00000170: 30a3 4ebe 8506 28bd 870b 6abe 6980 13be
00000180: 36c9 60bc 5828 163e e4c9 25be 5b79 2cbe
00000190: 7c15 093e 8f26 533e d415 41bd 8eea 1a3e
000001a0: a157 723e f294 d13d e651 473d 7e0d 5ebc
000001b0: b403 02bd 264d 4dbe 0169 2abe 1d17 f93d
000001c0: f753 18bd 6123 3dbe 263e 533d 6ed9 343d
000001d0: e9c8 7f3e 8af1 20bc 8ee4 313e d3a0 5a3e
000001e0: d3f5 65bd 4bc7 9a3d 9f9b 9bbd 7808 adbd
000001f0: 5cce 30be 247d 5cbe c9c9 78be f967 4cbd
00000200: dd73 19be f973 8a3d ff51 273e a21a ccbd
00000210: 7663 563e 9374 393d 9be1 5bbd f6f9 f43d
00000220: 5b41 c13c d76f 12be 0dec debd 78e2 26bd
00000230: e28c 8e3d b88c b93d ecbf 533e 40d8 703e
00000240: 663f 423e 472a 30be 7ad2 dbbd 4842 e63d
00000250: 5426 3ebe 7627 38be fc70 713e c912 3e3e
00000260: c4c9 04bd 5b2b 543e 6a0c 603e eaef a2bd
00000270: 3916 0d3c 79e2 2ebe 90c0 3abe b321 24bd
00000280: 0cea 2ebc ab27 373e d8b0 09be 2a09 903d
00000290: 16de d93d 3793 373e 3306 363e 160e 2f3e
000002a0: c306 e5bd be43 373b 9ff2 16be 3b6e 01be
000002b0: 2ef4 1f3e af78 2c3e 5ea7 1e3e 1ccc 623e
000002c0: e0b0 e3bd 03cf 6f3c f4b6 163e f4eb e23d
000002d0: 12ce 83be 1292 6d3d f261 77be 883f 70be
000002e0: 961e 00be 85bd e53d 6e68 4e3d c7bc 6b3d
000002f0: 4bf4 b6bd 8015 293e de59 e9bc e7ec 0e3e
00000300: 4175 433d efc7 14be f890 44be ddd5 5cbe
00000310: c07a 16be f816 61be 09df 45be e897 633d
00000320: 2340 c1bd 7582 31be e22e 3bbe 6a6a 883d
00000330: 4788 4dbe 1fd9 5f3d ed16 9a3d 51d6 0bbe
00000340: bfdf 36be 8b17 d6bd 0e30 2abd 7a79 583d
00000350: 87f3 02be a847 493e 32a4 173e 59a0 eabd
00000360: 902d ba3d cf51 f93d bf1a 553e 6195 393e
00000370: e2d8 10be 2811 34be 0b90 a6bc 2930 913d
00000380: 3506 0abe e743 16bd 04ab 19be 649b 493e
00000390: b5e8 aa3d 5ed5 f23c da27 013e 2a71 f3bd
000003a0: 95d1 c6bd 89c3 01be 6332 3e3d 7f45 283c
000003b0: 5801 1bbe 8061 4b3e 3c60 b63d bd73 2a3e
000003c0: 321c e8bd 7ddc f8bd cc76 df3b 39f5 f23d
000003d0: 5de1 45be 202c 523d 33b4 193e 7b39 9d3d
000003e0: bdfc 50be c2be 053e a118 003d d6ba 023e
000003f0: 9ae7 af3b b061 05bc 5532 a13d 48db 353e
0.18868336 0.060833454 -0.0068248603 -0.027083337 0.0064061717 -0.1141848 0.13814029 -0.073089644
0.016423304 0.06536959 0.041501824 0.1569746 0.022232039 -0.16381954 -0.058113042 -0.02101126
-0.10562381 -0.21254575 -0.069834135 -0.07164168 -0.081232995 0.07972704 -0.028376859 -0.18832603
-0.20298217 0.21079606 -0.11656545 0.10384797 0.020855766 0.18049473 -0.22400697 0.07330309
-0.089141645 -0.18956403 0.18225864 -0.08234666 -0.04866729 -0.014985406 0.012713594 -0.2022426
-0.1826751 0.22148077 0.18583417 0.0814152 0.11211611 0.007463395 0.029543659 0.15730265
0.19691302 0.030519638 0.08469402 0.13699386 -0.029122371 -0.048555534 0.12086641 0.13050894
-0.19966033 -0.013000677 0.105824776 -0.054587707 -0.05066746 -0.16853112 0.084029034 0.00025252745
0.111111864 -0.048220105 0.09469124 0.13308445 0.11407462 -0.032292757 0.18039696 0.07821232
0.10343351 -0.034456164 -0.08738345 0.19277406 0.12030374 -0.045448314 0.0075137634 -0.13901813
-0.05266939 -0.02338949 0.10559672 -0.003192176 -0.016546434 -0.1326695 -0.2276454 -0.028641257
-0.06143836 -0.006006118 0.13254642 0.04333499 -0.20179439 -0.041021843 -0.2285596 -0.14404453
-0.013719847 0.14663827 -0.16190296 -0.16843168 0.13387102 0.20620178 -0.047139958 0.15128538
0.2366624 0.10233487 0.04866209 -0.0135530215 -0.031741813 -0.20048961 -0.16641618 0.12162612
-0.03718945 -0.18470527 0.05157294 0.04415267 0.24978985 -0.009823212 0.17372343 0.21350412
-0.05614264 0.07557543 -0.07598042 -0.08448881 -0.1726622 -0.21532112 -0.24295725 -0.049903844
-0.14985605 0.06760401 0.16339873 -0.09966017 0.20936379 0.04527719 -0.05368195 0.11961739
0.023590734 -0.14300476 -0.10884867 -0.04074332 0.06960465 0.09060043 0.20678681 0.23519993
0.18969497 -0.17203628 -0.107335046 0.11243111 -0.18569309 -0.17983803 0.23578256 0.18561853
-0.03241898 0.20719664 0.21879736 -0.07955916 0.008611255 -0.1707858 -0.1823752 -0.0400712
-0.010675918 0.17886226 -0.13446367 0.07032998 0.10638063 0.17927252 0.17775802 0.17095217
-0.1118293 0.0027963961 -0.1474099 -0.12639706 0.15620491 0.16842912 0.15493533 0.22148174
-0.111177206 0.014636758 0.14718229 0.11080161 -0.25743157 0.05800063 -0.24158457 -0.23461735
-0.12511668 0.112177886 0.05039256 0.05755308 -0.08933314 0.16512108 -0.028485235 0.13957559
0.047719244 -0.14529394 -0.19195926 -0.21565957 -0.14695263 -0.21981418 -0.19323362 0.05556479
-0.09436061 -0.17334922 -0.18279603 0.06660922 -0.20071517 0.054650422 0.07523904 -0.13655974
-0.1785879 -0.10453709 -0.041549735 0.052850224 -0.12788211 0.19656241 0.1480873 -0.11456365
0.090907216 0.12173807 0.20810984 0.1812339 -0.14145234 -0.1758467 -0.020332357 0.07089264
-0.1347893 -0.03668585 -0.15006644 0.19688183 0.083451666 0.029642757 0.12612858 -0.11886819
-0.09707943 -0.12672247 0.04643477 0.010270475 -0.15137231 0.19861412 0.08905074 0.16645713
-0.11333503 -0.1215143 0.0068195816 0.11863179 -0.1932425 0.051311612 0.15010147 0.07676979
-0.20408912 0.1306105 0.031273488 0.12766585 0.005368185 -0.008140966 0.07870928 0.1775943
